runs/cartpole1.pt (torch, 273957 bytes, 9 tensors)

fc1.weight f4 [128, 4]
-0.12180855 -0.2592834 -0.40879926 0.19132015 -0.114823565 0.10891546 -0.3485803 -0.26851928
-0.39240143 0.2320181 -0.049956724 0.22366552 -0.26707083 0.33602542 -0.49813452 0.2875494
1.0424083 0.25707668 -0.2725774 -0.05625074 -0.16626258 0.20510544 -0.40503293 -0.080191866
0.030346442 0.2880194 0.42301482 0.28155857 -0.22636811 -0.063336976 -0.46421805 0.032603398
-0.01832916 0.23331937 0.26828516 -0.14594024 -0.3071246 0.0070323027 0.104255386 0.105492026
-0.1560829 0.4309565 0.3834033 0.3265603 0.50645393 0.63206315 1.6965181 0.45565972
0.519653 -0.5804785 -0.6935565 0.17093205 0.83569854 0.3107785 -1.3933376 -0.39657295
0.19783172 -0.06882492 0.52119356 -0.29534656 -0.15631984 -0.16232042 0.8289071 0.5508951
-0.16652136 0.17378423 0.09554295 0.22022513 -0.19086315 0.22241186 0.25622317 0.1578813
0.13064846 -0.050449844 -0.44649717 -0.19208501 -0.1858035 0.132575 0.16496094 -0.049141087
0.16854174 -0.24089843 0.07595066 -0.28999922 -0.028135316 -0.2009052 0.09333194 -0.21670234
0.24950857 0.48297623 0.63928425 -0.35063034 0.13372318 0.9784383 1.4469317 0.6782344
-0.7296882 0.5651049 1.2487249 0.69735724 -0.59353375 0.32106388 0.54446137 -0.044630554
-0.1617291 -0.037814572 0.021442667 -0.012981348 -0.3753592 0.4719107 0.78612983 0.62896407
1.0927033 0.32502335 -1.3711739 -0.4321317 -0.14842974 -0.09631179 -0.3964038 0.20463057
0.36284247 0.056762114 1.2476041 0.6283497 0.014568264 -0.13916999 0.36528388 -0.21511528
-0.06041596 0.29424813 -0.02009832 0.4204427 -1.0177202 -0.34047064 1.1048006 0.12797847
-0.068227425 0.06373662 0.14397624 0.030331172 0.37946567 0.76822865 1.7859107 0.52199584
0.44889733 -0.4357604 -0.21608147 -0.24670023 0.183126 -0.98586965 -1.2795419 -0.66543096
0.07223751 0.086616665 -0.075220644 0.18875135 0.019606337 -0.35041344 -1.7443538 -0.4543578
0.7596869 0.48869136 1.1907213 0.35852346 0.014157413 0.17289302 -0.14584824 -0.28406793
0.2826198 0.5673832 0.38884684 0.16235347 0.15182506 -0.323565 -1.6209241 -0.484921
-0.14374736 0.3989072 0.50760597 -0.18458846 -0.33128017 0.63453513 1.4557626 0.71332824
-0.4986695 0.54424125 0.19128166 -0.09530357 0.1848266 -0.14955166 -0.484299 -0.32372648
-0.2450197 0.06209536 0.24530396 0.2728822 -0.04636483 -0.552841 -0.2375077 0.28975362
0.3505105 -0.52182454 -0.8997919 -0.7827652 0.5009704 0.66975224 0.42062888 0.5157225
0.338783 -0.124272585 0.3981424 0.1321599 -0.072907664 0.29430062 0.12236824 -0.2463646
0.407735 -0.26416302 0.09252933 -0.015622205 -0.136303 0.44936928 0.25389892 0.25366476
-0.27435026 -0.50452733 -1.1167665 -0.5319674 -0.6539108 -0.61533695 0.3813801 0.026898129
0.112069204 0.1774467 -1.6191256 -0.16558234 -0.5936454 0.62780976 0.6541594 -0.28665823
0.34459418 -0.20258889 0.16480134 -0.24555221 0.375893 -0.14734498 0.16476068 -0.13671535
0.51522416 -0.57462025 -1.616024 -0.6282749 -1.0175343 -0.22679812 1.2936882 0.15107489
00000000: c376 f9bd cbc0 84be 234e d1be 6ee9 433e
00000010: 9e28 ebbd 120f df3d 1e79 b2be 5c7b 89be
00000020: d7e8 c8be 2796 6d3e 6c9f 4cbd 9308 653e
00000030: 82bd 88be 860b ac3e 7d0b ffbe ad39 933e
00000040: a36d 853f 8e9f 833e 448f 8bbe 2d67 66bd
00000050: bd40 2abe 2907 523e 7a60 cfbe a23b a4bd
00000060: 1a99 f83c 4777 933e 6695 d83e 7228 903e
00000070: 0bcd 67be d1b6 81bd fdad edbe 248b 053d
00000080: 0927 96bc 46eb 6e3e ac5c 893e 5c71 15be
00000090: 703f 9dbe 3b6f e63b d983 d53d 340c d83d
000000a0: 32d4 1fbe 55a6 dc3e 704d c43e e932 a73e
000000b0: f7a6 013f e4ce 213f 8127 d93f 3b4c e93e
000000c0: fb07 053f 3d9a 14bf eb8c 31bf d008 2f3e
000000d0: 57f0 553f 5c1e 9f3e e358 b2bf 9c0b cbbe
000000e0: 6694 4a3e 14f4 8cbd f16c 053f aa37 97be
000000f0: 4f12 20be 5337 26be 4133 543f 7607 0d3f
00000100: 9384 2abe 7ef4 313e 06ac c33d b282 613e
00000110: a171 43be efbf 633e af2f 833e a3ab 213e
00000120: b6c8 053e 7fa4 4ebd 479b e4be efb1 44be
00000130: 4643 3ebe bec1 073e 85eb 283e 2a48 49bd
00000140: 3596 2c3e 14ae 76be 058c 9b3d c77a 94be
00000150: 097c e6bc 18ba 4dbe d124 bf3d 38e7 5dbe
00000160: 2d7f 7f3e a948 f73e 22a8 233f d285 b3be
00000170: bbee 083e ef7a 7a3f 0f35 b93f c5a0 2d3f
00000180: d9cc 3abf b7aa 103f 38d6 9f3f 0186 323f
00000190: d4f1 17bf 7c62 a43e d261 0b3f 87ce 36bd
000001a0: 509c 25be 74e3 1abd 88a8 af3c b8af 54bc
000001b0: 152f c0be 479e f13e ce3f 493f ca03 213f
000001c0: b4dd 8b3f 7669 a63e a082 afbf 5e40 ddbe
000001d0: f7fd 17be 1e3f c5bd 70f5 cabe ad8a 513e
000001e0: 7dc6 b93e 647f 683d 7eb1 9f3f 87db 203f
000001f0: baaf 6e3c 9482 0ebe 7d06 bb3e 2e47 5cbe
00000200: ba76 77bd b1a7 963e 3ba5 a4bc 4444 d73e
00000210: a844 82bf 2b52 aebe 1b6a 8d3f ca0c 033e
00000220: d2ba 8bbd 5888 823d 826e 133e 1479 f83c
00000230: 5349 c23e a2aa 443f b998 e43f 85a1 053f
00000240: dfd5 e53e fd1b dfbe 7644 5dbe fc9e 7cbe
00000250: 6285 3b3e f461 7cbf 07c8 a3bf af59 2abf
00000260: 42f1 933d 1464 b13d 480d 9abd 0948 413e
00000270: 789d a03c 6469 b3be fc46 dfbf 96a1 e8be
00000280: d77a 423f c135 fa3e 8e69 983f 6390 b73e
00000290: 7ef4 673c de0a 313e 3e59 15be 5a71 91be
000002a0: 8bb3 903e 0740 113f ef16 c73e fd3f 263e
000002b0: 0778 1b3e 50aa a5be 717a cfbf 9147 f8be
000002c0: 8232 13be 913d cc3e 77f2 013f c204 3dbe
000002d0: 8e9d a9be e570 223f 6e56 ba3f ae9c 363f
000002e0: 9c51 ffbe 6553 0b3f 57df 433e 852e c3bd
000002f0: 2f43 3d3e 1224 19be 0af6 f7be 7abf a5be
00000300: 72e6 7abe b457 7e3d f630 7b3e 37b7 8b3e
00000310: 0ce9 3dbd fd86 0dbf 3835 73be 965a 943e
00000320: 1d76 b33e 4b96 05bf c358 66bf 4d63 48bf
00000330: 993f 003f e274 2b3f ab5c d73e 6406 043f
00000340: f774 ad3e a082 febd 52d9 cb3e ed54 073e
00000350: 9d50 95bd 92ae 963e 339c fa3d 0047 7cbe
00000360: a4c2 d03e 6040 87be 0480 bd3d 47f4 7fbc
00000370: 0393 0bbe bb13 e63e 0aff 813e 59e0 813e
00000380: a377 8cbe b428 01bf 34f2 8ebf 042f 08bf
00000390: b366 27bf b986 1dbf 4144 c33e 7759 dc3c
000003a0: 8a84 e53d 96b4 353e 823f cfbf 6b8e 29be
000003b0: 25f9 17bf 24b8 203f fe76 273f dec4 92be
000003c0: a66e b03e 7673 4fbe afc1 283e 0a72 7bbe
000003d0: 0c75 c03e 9ae1 16be 06b7 283e 1cff 0bbe
000003e0: bbe5 033f 501a 13bf e0d9 cebf a0d6 20bf
000003f0: 903e 82bf c43d 68be 9397 a53f 60b3 1a3e

fc1.bias f4 [128]
0.7422905 0.5565198 0.3211026 0.2705935 -0.08705688 0.5420442 0.5980764 0.5319241
0.4590074 0.44098473 0.5429615 0.20069072 0.03398004 -0.014732778 0.32037613 -0.06546749
0.35764503 -0.3381748 0.42198935 0.35016233 0.63667214 0.5673358 0.505972 -0.02583546
-0.430805 0.5436292 0.3011998 -0.39457083 -0.40456253 0.5151622 -0.1911699 0.23897739
0.6452317 -0.30738595 0.25600475 0.1602668 0.3324694 -0.02869898 0.4103028 0.6988127
-0.03072612 0.5349861 -0.17037071 -0.3632511 0.11547806 -0.38500112 0.10641197 0.47858018
0.5847102 0.5011116 -0.47950965 -0.0355785 0.7153474 0.69053775 0.4604826 0.65133333
-0.17237754 -0.19923298 -0.381564 0.14361791 0.69218653 0.32397464 0.7197297 -0.00079394743
0.15244812 0.5467276 0.39208096 0.4542913 -0.4865737 0.711329 0.61953163 0.4441638
0.26979402 0.5479337 0.51437175 0.76028776 -0.08341671 -0.42972013 0.66120595 -0.37420622
-0.39082325 0.08848453 -0.4064709 0.22561735 0.07999434 0.07640837 0.42761165 0.69121
-0.3255091 0.035959195 0.57998186 0.05341596 0.7381137 0.40062156 0.30930048 -0.011292096
0.65789276 -0.29602766 -0.04703663 0.57916003 0.39091793 0.12667052 -0.49883348 0.41111076
-0.48899952 0.43972406 -0.12509736 0.48182294 0.25988817 -0.30977127 0.2705349 0.03200543
0.4940211 0.09816823 -0.39337122 0.45704955 0.6592377 -0.3813599 0.285028 -0.13140406
0.6345856 -0.17320403 0.6787878 0.6144075 -0.13518192 0.521581 0.6879232 0.20459628
00000000: c006 3e3f 1578 0e3f 8f67 a43e 3b8b 8a3e
00000010: e14a b2bd 69c3 0a3f 891b 193f 2e2c 083f
00000020: 0503 eb3e c0c8 e13e 86ff 0a3f de81 4d3e
00000030: a82e 0b3d c061 71bc 5708 a43e d213 86bd
00000040: 401d b73e 3f25 adbe fd0e d83e 7a48 b33e
00000050: f2fc 223f eb3c 113f 6287 013f e3a4 d3bc
00000060: 7992 dcbe 492b 0b3f dc36 9a3e 3005 cabe
00000070: d222 cfbe ace1 033f 0bc2 43be 7db6 743e
00000080: e82d 253f b161 9dbe 0e13 833e fb1c 243e
00000090: 6e39 aa3e 201a ebbc 3513 d23e 64e5 323f
000000a0: 58b5 fbbc d9f4 083f a975 2ebe 0cfc b9be
000000b0: c37f ec3d de1e c5be 85ee d93d 7608 f53e
000000c0: 91af 153f da48 003f 4a82 f5be c3ba 11bd
000000d0: 0221 373f 15c7 303f 60c4 eb3e c8bd 263f
000000e0: bd83 30be bb03 4cbe 5b5c c3be 9310 133e
000000f0: 2333 313f 01e0 a53e 3540 383f e920 50ba
00000100: 5c1b 1c3e 57f6 0b3f d6be c83e df98 e83e
00000110: 3020 f9be a819 363f a099 1e3f 7069 e33e
00000120: 7122 8a3e 6245 0c3f dead 033f 38a2 423f
00000130: 61d6 aabd 4704 dcbe cb44 293f f597 bfbe
00000140: fc19 c8be 6137 b53d f41c d0be 3c08 673e
00000150: 13d4 a33d fe7b 9c3d eaef da3e 23f3 303f
00000160: 21a9 a6be f349 133d b179 143f b2ca 5a3d
00000170: 05f5 3c3f 451e cd3e a25c 9e3e 7c02 39bc
00000180: a96b 283f f090 97be 7ba9 40bd d543 143f
00000190: 6526 c83e ebb5 013e 1a67 ffbe 1c7d d23e
000001a0: 255e fabe 8323 e13e 8619 00be 7fb1 f63e
000001b0: 1010 853e 579a 9ebe 8d83 8a3e 2018 033d
000001c0: 55f0 fc3e 6d0c c93d f467 c9be 6602 ea3e
000001d0: cdc3 283f 9b41 c3be 31ef 913e c98e 06be
000001e0: 3474 223f 665c 31be 0ac5 2d3f cf49 1d3f
000001f0: 216d 0abe 5586 053f bc1b 303f b081 513e

fc_value.weight f4 [256, 128]
0.12044444 -0.0035518736 0.0033602132 -0.0030792893 -0.3879615 0.11300325 0.14036508 0.09375267
-0.023035059 0.17287278 0.1241942 -0.57338274 0.50278103 -0.3570598 -0.02033268 -0.14031976
0.12585758 -0.04112178 0.0113485735 0.12676351 0.04106711 0.122906856 0.049315978 -0.88336754
-0.71295524 0.11639986 0.1742292 -0.77903366 -0.42318517 0.14615503 -0.23905145 0.11302985
0.18881889 -0.5239814 0.20284072 -0.70028454 0.16824548 -1.0274858 0.1349606 -0.32353097
-0.7446136 -0.05065128 0.019369425 -0.4993428 0.07488893 -0.7330705 0.13711709 -0.11419932
0.05401913 0.009482091 -0.64171576 -0.72476906 0.10497452 0.08853382 0.12137299 0.0907947
-0.7088125 -0.2876616 -0.5621788 0.041100185 0.16796394 0.06517397 -0.41188878 -0.491752
-0.4995668 -0.113002606 0.108152166 -0.33238402 -0.3837248 0.19099666 0.23265758 0.057220407
-0.23661554 0.18279934 0.15136383 0.17709956 0.2786616 -0.8464445 0.15013352 -0.4745488
-0.029127413 0.20756698 -0.19107904 0.05993457 -0.8507452 -0.7608509 -0.10445018 0.122588806
-0.7650962 -0.46314588 -0.42078316 -0.40013316 0.06177765 0.21070565 0.06974784 -0.5723467
0.1684041 -0.79477286 -0.4120446 -0.4479951 -0.08005767 -0.73653316 -0.63471264 0.12026633
-0.31109953 0.1964268 -0.5660301 -0.053229317 0.09025974 -0.33243155 0.09683162 -0.33613002
-0.103904225 0.10737282 -0.7438556 0.08057566 0.08801751 -0.41688514 0.10900408 -0.58083105
0.05617511 -0.7336061 0.13696276 0.035950348 -0.51674163 -0.04942282 0.1935038 0.04085056
0.17846926 -0.003643945 0.04727671 0.10319855 -0.40266222 0.15610336 0.09243788 0.14253424
0.12774771 0.23543693 0.17934874 -0.581045 0.39975816 -0.42871565 0.015765851 -0.12362125
0.13257091 -0.00040003067 0.030862117 0.026616 0.14966771 0.059168052 0.001704757 -0.9310117
-0.7331545 0.20502344 0.093671545 -0.79079175 -0.41534632 0.12565994 -0.21360436 0.047261935
0.098248415 -0.59851485 0.13844085 -0.7021176 0.14556457 -1.1156219 0.09924959 -0.27020746
-0.70227045 -0.11740284 0.033138484 -0.55633414 0.091255404 -0.7184785 0.24046002 0.04339241
-0.041880608 0.06913825 -0.6261942 -0.63473743 0.24517645 0.010178316 0.15191257 0.16233219
-0.75104713 -0.35874245 -0.48211926 0.13916466 0.19492197 0.055185672 -0.4055202 -0.5232772
-0.50671846 -0.02140276 -0.010230845 -0.30806535 -0.52653295 0.19670449 0.19126546 0.04038029
-0.3055179 0.1990687 0.11416259 0.21160625 0.20557298 -0.9133072 0.015238361 -0.4373163
0.035115764 0.306655 -0.33375478 0.02284189 -0.7047747 -0.7643247 -0.04055288 0.10824421
-0.76112765 -0.3618465 -0.39023882 -0.34090608 0.10930233 0.12212184 0.116279826 -0.49907628
0.03965266 -0.8360409 -0.3157536 -0.46985382 -0.044551022 -0.72848165 -0.5279673 0.027655153
-0.31061187 0.07816136 -0.52730805 0.0096087735 0.06148114 -0.24365933 0.105046906 -0.26892918
-0.072191246 0.026526421 -0.69562703 0.10298206 0.13333113 -0.44537118 0.22523063 -0.4660239
0.21434376 -0.5698388 0.15125062 -0.014593303 -0.5960783 -0.027061166 0.23024431 0.047553603
00000000: 93ab f63d 8dc6 68bb 0637 5c3b e7cd 49bb
00000010: e4a2 c6be 3f6e e73d ddbb 0f3e 6601 c03d
00000020: 05b4 bcbc 9005 313e 8759 fe3d 36c9 12bf
00000030: 42b6 003f 8bd0 b6be b890 a6bc fcaf 0fbe
00000040: cfe0 003e 506f 28bd 5eef 393c 4bce 013e
00000050: fc35 283d 97b6 fb3d 8dff 493d 6024 62bf
00000060: 3c84 36bf 0d63 ee3d 2469 323e c06e 47bf
00000070: baab d8be aaa9 153e e7c9 74be 327c e73d
00000080: bd59 413e a523 06bf 7ab5 4f3e d945 33bf
00000090: 8b48 2c3e a884 83bf 1d33 0a3e daa5 a5be
000000a0: ff9e 3ebf b777 4fbd a1ac 9e3c dca9 ffbe
000000b0: 5e5f 993d 82aa 3bbf 6c68 0c3e 55e1 e9bd
000000c0: 2a43 5d3d c65a 1b3c 7c47 24bf 778a 39bf
000000d0: e2fc d63d 3851 b53d 6792 f83d 92f2 b93d
000000e0: bc74 35bf 6248 93be f3ea 0fbf ab58 283d
000000f0: bdfe 2b3e ee79 853d 16e3 d2be ebc6 fbbe
00000100: 38c7 ffbe e96d e7bd e27e dd3d 3d2e aabe
00000110: 9477 c4be a194 433e ca3d 6e3e f25f 6a3d
00000120: 584b 72be c02f 3b3e 1fff 1a3e 9659 353e
00000130: bcac 8e3e 96b0 58bf 9abc 193e 0ff8 f2be
00000140: 9d9c eebc 708c 543e 39aa 43be f47d 753d
00000150: 70ca 59bf 20c7 42bf fae9 d5bd d70f fb3d
00000160: 58dd 43bf 7521 edbe e470 d7be 41de ccbe
00000170: 900a 7d3d 39c3 573e f5d7 8e3d 5085 12bf
00000180: 2072 2c3e 3c76 4bbf 83f7 d2be 9d5f e5be
00000190: 47f5 a3bd 708d 3cbf 877c 22bf 324e f63d
000001a0: 7048 9fbe 1b24 493e 59e7 10bf fc06 5abd
000001b0: 19da b83d 7834 aabe a84f c63d 3c19 acbe
000001c0: bdcb d4bd 48e6 db3d 526d 3ebf da04 a53d
000001d0: 8642 b43d f871 d5be 883d df3d 58b1 14bf
000001e0: df17 663d 9ccd 3bbf f73f 0c3e ac40 133d
000001f0: 2e49 04bf 956f 4abd dc25 463e eb52 273d
00000200: a5c0 363e 41cf 6ebb 39a5 413d c359 d33d
00000210: be29 cebe 8fd9 1f3e 1250 bd3d 7ff4 113e
00000220: 4cd0 023e 6116 713e 32a7 373e 5dbf 14bf
00000230: 1aad cc3e 9e80 dbbe 6327 813c 232d fdbd
00000240: abc0 073e 35bb d1b9 8dd2 fc3c cc09 da3c
00000250: 7e42 193e 335a 723d 2772 df3a c856 6ebf
00000260: 03b0 3bbf aaf1 513e ded6 bf3d 5471 4abf
00000270: 46a8 d4be 00ad 003e 1abb 5abe bb95 413d
00000280: 7736 c93d 4538 19bf 70c3 0d3e fbbd 33bf
00000290: e10e 153e b3cc 8ebf 5e43 cb3d a258 8abe
000002a0: ffc7 33bf e670 f0bd 38bc 073d ea6b 0ebf
000002b0: 1de4 ba3d 35ee 37bf 273b 763e 3dbc 313d
000002c0: 008b 2bbd 5b98 8d3d 434e 20bf 277e 22bf
000002d0: 890f 7b3e f4c2 263c f88e 1b3e 693a 263e
000002e0: a044 40bf 17ad b7be 56d8 f6be 2e81 0e3e
000002f0: a099 473e 5f0a 623d 58a0 cfbe 7ff5 05bf
00000300: 4db8 01bf d754 afbc 469f 27bc beba 9dbe
00000310: ddca 06bf e76c 493e 18db 433e ce65 253d
00000320: d86c 9cbe aad8 4b3e 13ce e93d 4faf 583e
00000330: b981 523e 80ce 69bf 52aa 793c ece7 dfbe
00000340: 8cd5 0f3d e201 9d3e e8e1 aabe ea1e bb3c
00000350: 1d6c 34bf c9aa 43bf c71a 26bd 24af dd3d
00000360: 43d9 42bf f243 b9be 62cd c7be 3e8b aebe
00000370: e6d9 df3d 041b fa3d 1e24 ee3d ed86 ffbe
00000380: d46a 223d c706 56bf 75aa a1be ae90 f0be
00000390: 227b 36bd c67d 3abf dd28 07bf 0f8d e23c
000003a0: 8508 9fbe 1013 a03d a9fd 06bf 1e6e 1d3c
000003b0: a6d3 7b3d d581 79be d522 d73d 16b1 89be
000003c0: 01d9 93bd f04d d93c 9d14 32bf 42e8 d23d
000003d0: f587 083e b107 e4be dca2 663e af9a eebe
000003e0: ee7c 5b3e f5e0 11bf 71e1 1a3e c018 6fbc
000003f0: 9698 18bf 61af ddbc 2ac5 6b3e 91c7 423d

fc_value.bias f4 [256]
0.081386596 0.12426387 0.18356696 0.10216179 0.119731426 0.036196414 0.12619539 0.20162417
-0.0945594 -0.06173635 -0.110768326 -0.06565581 0.068414606 0.09208787 0.705247 0.26906735
0.0117492415 0.115161285 -0.06760465 0.066727154 0.11468736 0.052952185 0.21754614 -0.077655435
0.2602533 0.067654565 0.1731163 -0.010730345 -0.03874974 0.05274179 -0.005304004 0.085756585
-0.061475303 0.091756284 0.15671992 -0.03897633 0.0132688675 0.058661822 -0.071059056 0.19135961
0.21235953 0.18408082 -0.07755883 0.014802695 -0.076895036 -0.11918199 0.20816937 -0.009231559
-0.04046907 0.17143069 0.21301518 0.05362362 -0.012157351 -0.07152804 0.0459937 -0.054511435
0.07580007 -0.065329984 0.22577734 0.038858604 0.10310531 0.14064439 0.06600803 0.50908655
0.0038975824 0.20045727 -0.03638462 0.13924167 -0.03314933 -0.030651921 0.19903672 0.11930146
-0.07881583 -0.037984267 0.20831165 0.007763765 0.057189114 -0.031190995 0.1638977 0.18164471
0.22794667 0.11328964 0.0018376674 0.06310096 0.17492634 0.08947884 -0.041913576 0.047830082
-0.05581313 -0.31250235 0.14959042 0.10277676 -0.03565514 0.004977448 -0.045336165 0.046525743
0.20267981 0.15421736 -0.042158235 -0.023190292 0.05173862 -0.008908237 0.11894387 -0.058687508
-0.019058742 -0.06685815 -0.032317773 -0.07525012 0.06643375 -0.045210302 0.07880836 0.10690246
0.1881332 -0.039339982 0.19501895 0.12102306 0.04874603 0.048076652 -0.054674327 -0.037964724
0.1836469 -0.07790809 -0.09105237 -0.090482704 0.17393382 -0.0026266756 -0.03629589 0.197808
-0.016215127 0.04325679 0.20948774 0.25226307 0.18272507 0.033908103 0.15465738 0.18637182
-0.06751848 0.13800475 0.05246745 0.2147631 0.20253684 0.06202776 0.16596313 -0.074501716
0.061492126 0.03345669 -0.04496405 0.21420296 -0.0019041506 -0.036061645 0.048988152 0.12588255
0.1723719 0.043704543 -0.05124569 -0.0075380853 -0.08072406 0.1431338 0.04912604 0.018324042
0.117866136 -0.048493102 -0.034308277 0.20989099 0.1297492 0.088330396 0.16251877 -0.032922357
0.049134184 -0.062319506 0.14154917 0.08550687 -0.027113855 0.19418047 0.17562184 0.010759902
0.16890252 0.19445306 -0.030608924 0.2708991 0.13458703 0.048819914 0.12030732 -0.084330454
0.19777292 -0.10080346 -0.046866883 0.14867046 0.17589158 0.20771174 0.06930219 -0.061457008
0.16644262 0.052406326 0.076736294 0.017103285 0.11852928 -0.048815913 0.016067801 0.60397935
0.068127155 0.12504786 0.19358122 -0.032925732 -0.102981925 0.05099582 0.23685388 -0.06975437
0.07582622 -0.09922349 0.2314924 -0.10233612 0.17964596 0.19684458 -0.004504417 -0.085712716
0.10029785 -0.06534467 0.11141186 -0.08564558 -0.075749986 -0.05883869 0.09797727 0.120422296
-0.066737056 0.07242918 0.06403028 0.05924069 0.14308019 0.07970937 0.13143247 0.078962
0.2379499 -0.033964954 0.03977181 -0.025056385 0.13628875 0.015676714 -0.0803791 0.15310359
-0.030936778 0.0071675633 -0.014643971 -0.0450947 0.14786777 0.13417687 -0.0181547 0.12771729
-0.015101734 0.095478915 0.2006648 -0.053459372 0.21616726 -0.09566751 0.0832215 -0.07015938
00000000: 04ae a63d 0e7e fe3d faf8 3b3e 333a d13d
00000010: c035 f53d b142 143d 5d39 013e 9176 4e3e
00000020: 5ca8 c1bd 41df 7cbd 81da e2bd 8e76 86bd
00000030: f51c 8c3d 9198 bc3d 118b 343f 32c3 893e
00000040: e47f 403c aed9 eb3d 4f74 8abd 3fa8 883d
00000050: 35e1 ea3d 64e4 583d 6ac4 5e3e d009 9fbd
00000060: ec3f 853e 7a8e 8a3d 6645 313e 54ce 2fbc
00000070: 0cb8 1ebd c607 583d 36cd adbb 26a1 af3d
00000080: 87cd 7bbd b8ea bb3d 307b 203e a5a5 1fbd
00000090: aa65 593c 6147 703d 6987 91bd c6f3 433e
000000a0: c774 593e af7f 3c3e 2ad7 9ebd 0187 723c
000000b0: 257b 9dbd b015 f4bd 5a2a 553e f73f 17bc
000000c0: e5c2 25bd 878b 2f3e a720 5a3e 71a4 5b3d
000000d0: a02f 47bc 4b7d 92bd e463 3c3d 6247 5fbd
000000e0: 113d 9b3d bacb 85bd 2d32 673e 332a 1f3d
000000f0: e028 d33d 1505 103e 382f 873d 7f53 023f
00000100: 956e 7f3b ac44 4d3e 0a08 15bd 5e95 0e3e
00000110: 98c7 07bd bd19 fbbc 48d0 4b3e 5354 f43d
00000120: 326a a1bd 6495 1bbd a64f 553e 2e67 fe3b
00000130: 223f 6a3d 4284 ffbc ccd4 273e 1201 3a3e
00000140: da6a 693e 6604 e83d e3dd f03a 133b 813d
00000150: e41f 333e af40 b73d 92ad 2bbd 7ae9 433d
00000160: 4f9c 64bd 4f00 a0be 3b2e 193e 9f7c d23d
00000170: 200b 12bd dc19 a33b 6ab2 39bd c791 3e3d
00000180: 4c8b 4f3e 28eb 1d3e 1dae 2cbd 91f9 bdbc
00000190: e0eb 533d dbf3 11bc d898 f33d 5062 70bd
000001a0: 1421 9cbc edec 88bd a45f 04bd bc1c 9abd
000001b0: 6b0e 883d 702e 39bd 4766 a13d adef da3d
000001c0: fda5 403e f622 21bd 0cb3 473e f0da f73d
000001d0: eba9 473d 06ec 443d 30f2 5fbd e680 1bbd
000001e0: ef0d 3c3e 478e 9fbd aa79 babd ff4e b9bd
000001f0: b51b 323e 4e24 2cbb 00ab 14bd 2e8e 4a3e
00000200: 96d5 84bc 082e 313d f483 563e a028 813e
00000210: 481c 3b3e 39e3 0a3d 815e 1e3e 41d8 3e3e
00000220: 2147 8abd 1e51 0d3e 1ce8 563d dcea 5b3e
00000230: d165 4f3e d210 7e3d 3df2 293e 5b94 98bd
00000240: 2bdf 7b3d e209 093d 392c 38bd 0558 5b3e
00000250: b194 f9ba 60b5 13bd cda7 483d 5be7 003e
00000260: 4282 303e 8903 333d 00e7 51bd 0b02 f7bb
00000270: a852 a5bd ab91 123e 6338 493d 4d1c 963c
00000280: cd63 f13d b4a0 46bd d686 0cbd aaed 563e
00000290: f9dc 043e 91e6 b43d 526b 263e 98d9 06bd
000002a0: ed40 493d bd42 7fbd 44f2 103e 3a1e af3d
000002b0: e01d debc 3fd7 463e 36d6 333e 4d4a 303c
000002c0: c8f4 2c3e b41e 473e 91bf fabc 49b3 8a3e
000002d0: 2fd1 093e 64f7 473d af63 f63d 72b5 acbd
000002e0: fc84 4a3e 0b72 cebd 7df7 3fbd 123d 183e
000002f0: ec1c 343e 63b2 543e 4eee 8d3d 58ba 7bbd
00000300: ef6f 2a3e 04a8 563d eb27 9d3d 301c 8c3c
00000310: 7bbf f23d 32f3 47bd 9fa0 833c 649e 1a3f
00000320: 4086 8b3d 8c0c 003e 283a 463e 22dd 06bd
00000330: 30e8 d2bd fee0 503d d389 723e 61db 8ebd
00000340: c74a 9b3d af35 cbbd 580c 6d3e 9a95 d1bd
00000350: 1cf5 373e a091 493e ca99 93bb 268a afbd
00000360: f668 cd3d 6dd3 85bd e72b e43d f366 afbd
00000370: cf22 9bbd d700 71bd 4fa8 c83d f79f f63d
00000380: 70ad 88bd c055 943d 4f22 833d 5ea6 723d
00000390: 9d83 123e ab3e a33d 3c96 063e d4b6 a13d
000003a0: 23a9 733e d61e 0bbd c4e7 223d 0c43 cdbc
000003b0: 478f 0b3e 746c 803c cc9d a4bd 30c7 1c3e
000003c0: 206f fdbc e1dd ea3b 44ed 6fbc 38b5 38bd
000003d0: a66a 173e a965 093e 2ab9 94bc 52c8 023e
000003e0: 436d 77bc 738a c33d 137b 4d3e 37f8 5abd
000003f0: f35a 5d3e 54ed c3bd 0970 aa3d b9af 8fbd

value.weight f4 [1, 256]
0.7070584 0.70891804 0.73676604 0.77456164 0.61278504 -0.02041722 0.72943544 0.62889534
0.045909896 -0.014934479 0.008773066 -0.035269905 0.72302264 0.72903603 1.1608531 0.6033807
-0.0029934947 0.77976185 0.060724035 0.8433311 0.630482 0.71979755 0.7655694 0.018962208
0.48032722 -0.044670165 0.68868625 0.016668804 -0.040266827 -0.035518542 -0.026780844 0.75863105
-0.927866 0.72660744 0.66715854 -0.024186062 -0.00658714 -0.018959293 -0.027352568 0.69142467
0.73635125 0.78461295 -0.71266526 -0.006225601 -0.0029485493 -0.88613784 0.69556475 0.008024641
0.0018231989 0.7135764 0.6319462 -0.002737547 0.009137677 -0.040915146 0.70922136 0.015233991
-0.012065172 -0.0008552326 0.71661067 0.48654222 0.7106271 0.6642814 0.8529087 1.0386647
-0.012481503 0.7570744 -0.02208862 0.71483916 -0.04489056 -0.021153979 0.71680564 0.7495004
-0.032712355 -0.022340585 0.7866109 -0.027969537 -0.04748823 -0.018198084 0.6720137 0.63370126
0.62247163 0.69390815 -0.0014163061 -0.024150178 0.66310585 0.73708254 -0.020623878 -0.0032616726
0.043621592 -0.7646996 0.6184375 0.6308461 0.0015702681 0.018267468 0.0034686849 0.7456926
0.6645791 0.69888794 0.03473778 0.0014606342 -0.042170696 -0.00758522 0.6730483 -0.9523051
-0.036645126 -0.022341225 0.005208999 -0.01944963 0.70335203 -0.0001445836 0.6513765 0.29692346
0.6929517 0.0025301317 0.67719144 0.6977286 -0.008194906 0.0003430338 0.0084403055 -0.038128227
0.69562757 0.004120445 0.012895613 -0.043849014 0.6669594 -0.052649137 -0.0005546176 0.6485837
-0.004956637 0.041629396 0.7244014 0.6332762 0.6348554 -0.039501745 0.6850257 0.7247578
0.00064872205 0.6998566 -0.008652515 0.7123794 0.7027128 0.7206484 0.66592443 -0.32541782
0.65568626 -0.02865222 0.0077536823 0.69677585 -0.04068188 -0.0053699985 0.86605084 0.59747314
0.78961504 -0.024055688 0.04672262 -0.071250826 -0.025247362 0.71815264 -0.044126272 0.005990485
0.7239891 -0.037021067 -0.0183249 0.72382367 0.68268543 0.6966958 0.77426517 -0.04993897
-0.04089697 -0.026620843 0.7635183 0.6899283 -0.0019223491 0.6930296 0.7022107 -0.02397364
0.723732 0.6599642 -0.013916854 0.5652524 0.7089673 -0.04269996 0.7680496 -0.014136296
0.63741434 0.010636795 0.021694982 0.6470686 0.6707652 0.639338 0.70013833 -0.016630532
0.6863246 -0.03665587 0.6973763 0.006204808 0.70839036 -0.011314583 -0.010680448 1.0402033
0.7679097 0.73030263 0.7163082 -0.029039472 0.029453952 -0.02300669 0.6420854 -0.035661545
-0.03965378 -0.040186238 0.6667758 -0.01613968 0.7327357 0.8208535 -0.03974146 -0.0046541854
0.6812555 -0.632241 0.66869676 -0.012859744 0.01802334 -0.028670399 0.73269033 0.6017415
-0.029966697 -0.0037615919 0.6544213 -0.004410561 0.6853397 0.657669 0.68978006 0.6997744
0.7134799 -0.0030115591 -0.006002352 -0.044066478 0.6886522 -0.024594724 -0.047097236 0.6459736
0.05512295 -0.0030311323 0.019521445 -0.00908636 0.7225829 0.7321764 0.005806357 0.7138928
0.0043232176 0.7278186 0.7025863 -0.010783597 0.65136904 -0.048348766 0.7129017 -0.047655866
00000000: c801 353f a77b 353f b39c 3c3f ac49 463f
00000010: 7bdf 1c3f 0442 a7bc 48bc 3a3f 49ff 203f
00000020: 040c 3c3d bfaf 74bc e8bc 0f3c 2d77 10bd
00000030: 0318 393f 1ba2 3a3f d696 943f 2877 1a3f
00000040: 822e 44bb 799e 473f c4b9 783d 8ce4 573f
00000050: 4567 213f a744 383f 5bfc 433f a256 9b3c
00000060: 73ed f53e 10f8 36bd be4d 303f 048d 883c
00000070: d4ee 24bd e47b 11bd 8063 dbbc a535 423f
00000080: a088 6dbf f202 3a3f e7ca 2a3f d921 c6bc
00000090: efd8 d7bb 8550 9bbc 7e12 e0bc 3501 313f
000000a0: 8481 3c3f 65dc 483f 3b71 36bf 2000 ccbb
000000b0: 733c 41bb eed9 62bf 8810 323f c979 033c
000000c0: 67f8 ee3a f1ac 363f 3ac7 213f 6b68 33bb
000000d0: 32b6 153c a496 27bd 888f 353f fd97 793c
000000e0: 00ad 45bc b031 60ba cc73 373f 101c f93e
000000f0: a8eb 353f 590e 2a3f 3958 5a3f f7f2 843f
00000100: 387f 4cbc a1cf 413f 32f3 b4bc b3ff 363f
00000110: 2adf 37bd 1c4b adbc 9380 373f 42df 3f3f
00000120: 64fd 05bd 9a03 b7bc 555f 493f 5f20 e5bc
00000130: 0583 42bd 2614 95bc 1709 2c3f 3f3a 223f
00000140: 4d5a 1f3f f7a3 313f 59a3 b9ba 98d6 c5bc
00000150: 4ec1 293f 71b1 3c3f 68f3 a8bc c9c1 55bb
00000160: 8eac 323d 5ac3 43bf ec51 1e3f 217f 213f
00000170: 74d1 cd3a a8a5 953c e052 633b b6e5 3e3f
00000180: db21 2a3f 52ea 323f 3449 0e3d c072 bf3a
00000190: 2ebb 2cbd 708d f8bb e54c 2c3f 44ca 73bf
000001a0: 3319 16bd f204 b7bc 40b0 aa3b d554 9fbc
000001b0: e10e 343f 5d9b 17b9 9cc0 263f 5a06 983e
000001c0: 4865 313f 91d0 253b 6b5c 2d3f 579e 323f
000001d0: ed43 06bc 38d9 b339 3549 0a3c 582c 1cbd
000001e0: a614 323f cc04 873b 1f48 533c 069b 33bd
000001f0: dabd 2a3f 9fa6 57bd c263 11ba 9509 263f
00000200: 496b a2bb 9683 2a3d 5f72 393f 641e 223f
00000210: e285 223f 95cc 21bd d85d 2f3f ba89 393f
00000220: 000f 2a3a cd29 333f 47c3 0dbc 7f5e 363f
00000230: fce4 333f 6a7c 383f 067a 2a3f 2a9d a6be
00000240: 0edb 273f 0fb8 eabc 9a12 fe3b e75f 323f
00000250: 0ba2 26bd d0f6 afbb 82b5 5d3f 00f4 183f
00000260: 3624 4a3f 6f10 c5bc 3860 3f3d f4eb 91bd
00000270: 8ed3 cebc dad8 373f c0bd 34bd d54b c43b
00000280: 5a57 393f 67a3 17bd 1a1e 96bc 824c 393f
00000290: 79c4 2e3f a85a 323f 3e36 463f ce8c 4cbd
000002a0: 9583 27bd f413 dabc ef75 433f 249f 303f
000002b0: 55f7 fbba 636a 313f 15c4 333f 5e64 c4bc
000002c0: 8046 393f 6af3 283f 8403 64bc 62b4 103f
000002d0: e27e 353f 27e6 2ebd e69e 443f ec9b 67bc
000002e0: 962d 233f f445 2e3c adb9 b13c 4aa6 253f
000002f0: 45b7 2b3f a8ab 233f 443c 333f c13c 88bc
00000300: f8b2 2f3f 7724 16bd 4187 323f b451 cb3b
00000310: 1259 353f cd60 39bc 0cfd 2ebc 6225 853f
00000320: bb95 443f 1df5 3a3f f95f 373f 30e4 edbc
00000330: 6a49 f13c 8778 bcbc b55f 243f d711 12bd
00000340: 016c 22bd 539a 24bd d2b1 2a3f 5d37 84bc
00000350: 9194 3b3f 7423 523f f1c7 22bd 2382 98bb
00000360: c366 2e3f 8cda 21bf b62f 2b3f adb1 52bc
00000370: afa5 933c 2fde eabc 9891 3b3f bb0b 1a3f
00000380: b87c f5bc 0a85 76bb 2888 273f 7886 90bb
00000390: 6c72 2f3f ff5c 283f 6d95 303f 6a24 333f
000003a0: 9ea6 363f 945d 45bb 61af c4bb 0d7f 34bd
000003b0: 834b 303f e07a c9bc 08e9 40bd 875e 253f
000003c0: 9ac8 613d f6a5 46bb 70eb 9f3c f5de 14bc
000003d0: 31fb 383f ea6f 3b3f 4143 be3b aec1 363f
000003e0: c7a9 8d3b 5252 3a3f b2dc 333f afad 30bc
000003f0: 1fc0 263f 5b09 46bd ba80 363f cc32 43bd

fc_advantages.weight f4 [256, 128]
0.23509 0.07384834 0.104717135 0.14265747 0.24010609 0.013099957 0.18017827 0.10203225
0.16608623 0.22150472 0.1895645 0.27788427 -0.18098453 -0.17593807 0.20832068 0.2066467
0.14749247 0.1280692 -0.014300673 0.21432193 0.20261969 0.14488763 -0.0014855867 0.054531004
0.022950865 0.28606245 0.20075797 -0.16664855 0.10866533 0.07179972 0.07879806 0.1885497
0.15021294 -0.34370133 0.22656392 0.24425222 -0.0054965056 0.2243847 0.093346626 -0.44137132
-0.13970958 -0.04462045 0.60484916 -0.74564457 0.29772484 -0.0043092323 0.45014662 -0.11527711
0.28560922 0.24732627 -0.09817319 -0.4352421 0.15695545 0.1252029 0.1488813 0.074562214
0.13928662 -0.29579523 0.1050522 0.5393657 0.18380165 0.012222219 -0.6884129 0.25041598
0.24951573 0.2337463 0.34236386 -0.19706038 -0.25788328 0.10010963 0.26461008 0.13429397
0.32347992 0.052149765 0.22955032 0.062546775 0.1397665 -0.19115333 0.04829493 -0.2271724
-0.031452905 0.025255183 0.18815787 0.070232674 0.14030212 0.26677465 -0.061949916 0.10306849
-0.15051354 0.09837112 -0.8718015 0.28753665 0.21572207 0.17702678 0.17128967 -0.33878347
0.14513142 0.2688373 -0.12672682 -0.5897435 0.282886 -0.23875557 -0.18513845 0.25996962
-0.14277682 0.09881187 -0.23682904 -0.03848267 0.14852343 -0.5204435 0.17072223 0.057685293
-0.02934536 0.3197416 0.60791355 0.2169133 0.16597113 -0.8490884 0.20171687 -0.16078515
0.073130235 0.074698664 0.116152845 0.12898818 0.08674059 0.037506424 0.2355742 0.30686164
0.060585715 0.016537607 0.026381461 -0.02558785 -0.03367064 -0.08022079 0.02169101 -0.010179858
0.01472624 -0.059893828 -0.08554857 0.05693335 -0.053859036 -0.024173861 -0.03254254 -0.009764497
-0.057798743 0.04675647 -0.08200252 -0.007643839 -0.05973458 -0.08568666 -0.08275972 0.095354125
0.10093082 0.026957422 -0.06468211 0.019786622 0.011382283 0.053753287 0.015297028 -0.104710706
-0.051497985 -0.03828298 -0.03485296 -0.07270902 -0.11355268 0.08641427 -0.044445574 -0.027694108
0.052324533 0.07227734 -0.08202311 0.017863626 -0.025707873 -0.027249364 0.0216472 0.011654208
0.0047561103 0.030925764 0.048018914 -0.049233083 -0.057050135 -0.006369558 -0.053636093 -0.01728704
0.08685793 0.052758723 -0.031359732 0.010718647 -0.016223846 -0.05242938 -0.023572303 -0.054462615
-0.012507371 -0.0357917 -0.003281245 0.06369042 0.0859995 -0.05643987 0.047139965 -0.09305195
0.020785537 -0.054330397 -0.06506668 0.05275984 -0.06572476 -0.0464489 0.065653026 0.02327473
-0.01921262 -0.010239032 -0.03987258 0.02400057 0.03202089 -0.061922453 -0.06809095 -0.0661243
0.08884104 0.04256008 -0.053667773 -0.018009879 -0.05724887 0.025934191 0.018529197 0.03921681
0.018263062 0.018189395 0.005696763 0.012114414 0.023339828 0.065749824 0.0063269557 0.017785134
-0.05904576 -0.051340908 0.055044543 0.061215926 -0.07619813 -0.034982126 -0.04517021 0.044434246
0.019219076 0.037099253 0.017089967 -0.051306933 0.006004201 0.056380935 -0.045720607 -0.025336755
-0.044572685 -0.06356034 -0.07209719 -0.086668074 -0.010386608 -0.077852674 0.020880166 -0.009457352
00000000: 6fbb 703e cc3d 973d f075 d63d cd14 123e
00000010: 5fde 753e 34a1 563c a780 383e 49f6 d03d
00000020: 8212 2a3e 22d2 623e 321d 423e d946 8e3e
00000030: 0254 39be 1c29 34be 0452 553e 319b 533e
00000040: 4408 173e 9324 033e 5f4d 6abc 3577 5b3e
00000050: 897b 4f3e 6c5d 143e 05b8 c2ba e75b 5f3d
00000060: 7403 bc3c c776 923e 7f93 4d3e eba5 2abe
00000070: ee8b de3d bb0b 933d e160 a13d 2c13 413e
00000080: 6cd1 193e 9ff9 afbe 5f00 683e 411d 7a3e
00000090: 081c b4bb 1ac5 653e 842c bf3d 6cfb e1be
000000a0: 0710 0fbe efc3 36bd 65d7 1a3f 90e2 3ebf
000000b0: 646f 983e 7634 8dbb 9e79 e63e 6816 ecbd
000000c0: 5f3b 923e 1943 7d3e 070f c9bd 0dd8 debe
000000d0: eeb8 203e 3035 003e 5774 183e 13b4 983d
000000e0: 27a1 0e3e 7972 97be 9c25 d73d df13 0a3f
000000f0: 8036 3c3e b43f 483c d43b 30bf 8636 803e
00000100: 0d81 7f3e 315b 6f3e 514a af3e 32ca 49be
00000110: 4709 84be 4706 cd3d f97a 873e 5c84 093e
00000120: 299f a53e fe9a 553d 3d0f 6b3e 8618 803d
00000130: f31e 0f3e b3bd 43be e8d0 453d e29f 68be
00000140: c3d4 00bd f5e3 ce3c 75ac 403e 26d6 8f3d
00000150: 5cab 0f3e b096 883e 32bf 7dbd 9315 d33d
00000160: 3920 1abe cc76 c93d 622e 5fbf 0138 933e
00000170: 3fe6 5c3e 8246 353e 8f66 2f3e 0775 adbe
00000180: 559d 143e 0ba5 893e adc4 01be 6ef9 16bf
00000190: 6fd6 903e 577c 74be ef94 3dbe bd1a 853e
000001a0: 1634 12be e15d ca3d 5083 72be 01a0 1dbd
000001b0: 8716 183e c93b 05bf cfd1 2e3e 6a47 6c3d
000001c0: ae65 f0bc 2cb5 a33e 39a0 1b3f 851e 5e3e
000001d0: 56f4 293e db5d 59bf de8e 4e3e dda4 24be
000001e0: 4ec5 953d 9dfb 983d 8be1 ed3d 7a15 043e
000001f0: 0da5 b13d 56a0 193d 5d3a 713e f81c 9d3e
00000200: ba28 783d e079 873c ef1d d83c 9c9d d1bc
00000210: 3aea 09bd cc4a a4bd 58b1 b13c 6bc9 26bc
00000220: 5446 713c 3b53 75bd 1734 afbd f232 693d
00000230: 4b9b 5cbd 4308 c6bc 544b 05bd 45fb 1fbc
00000240: 60be 6cbd b683 3f3d f0f0 a7bd 2b79 fabb
00000250: 3fac 74bd 7d7c afbd ee7d a9bd 0649 c33d
00000260: d1b4 ce3d d0d5 dc3c 0e78 84bd 8e17 a23c
00000270: c17c 3a3c 682c 5c3d 63a0 7a3c 9172 d6bd
00000280: 8def 52bd 9dce 1cbd fac1 0ebd 77e8 94bd
00000290: 4f8e e8bd f7f9 b03d 900c 36bd c1de e2bc
000002a0: 4052 563d 2406 943d bbfb a7bd bd56 923c
000002b0: 5199 d2bc 0f3a dfbc 7855 b13c 4bf1 3e3c
000002c0: 25d9 9b3b 0758 fd3c 7baf 443d a1a8 49bd
000002d0: 67ad 69bd bab7 d0bb 85b1 5bbd 8d9d 8dbc
000002e0: 92e2 b13d 8819 583d 1073 00bd 449d 2f3c
000002f0: dfe7 84bc 31c0 56bd b41a c1bc 3114 5fbd
00000300: b7eb 4cbc 519a 12bd 280a 57bb 1f70 823d
00000310: 8120 b03d 7e2d 67bd d615 413d 0592 bebd
00000320: 6e46 aa3c 8d89 5ebd ae41 85bd b41a 583d
00000330: b49a 86bd 3441 3ebd 1875 863d a6aa be3c
00000340: c963 9dbc 9dc1 27bc 6e51 23bd d89c c43c
00000350: 5628 033d 66a2 7dbd 4573 8bbd 2d6c 87bd
00000360: 4bf2 b53d 7a53 2e3d bdd2 5bbd 7489 93bc
00000370: cb7d 6abd f173 d43c 8bca 973c cea1 203d
00000380: 6b9c 953c ed01 953c e9ab ba3b 897b 463c
00000390: 2b33 bf3c d8a7 863d 5a52 cf3b 21b2 913c
000003a0: f8d9 71bd d84a 52bd 6376 613d 8dbd 7a3d
000003b0: c40d 9cbd 6b49 0fbd 6604 39bd af00 363d
000003c0: 5371 9d3c 63f5 173d 4200 8c3c 3827 52bd
000003d0: e3be c43b b2ef 663d 8845 3bbd 078f cfbc
000003e0: d991 36bd ec2b 82bd b1a7 93bd 087f b1bd
000003f0: 972c 2abc 3971 9fbd e20c ab3c 02f3 1abc

fc_advantages.bias f4 [256]
0.13743746 0.055378824 -0.0071329433 0.05787537 0.11612811 -0.0023415845 0.32923654 0.14452904
-0.072004706 0.014374184 -0.06930944 -0.01270922 0.02040646 0.060390275 -0.11298788 0.0343887
-0.011924234 -0.0047637024 -0.09287178 -0.051456265 0.061664056 -0.056474037 0.04539429 0.025874788
-0.10991108 -0.05923725 0.095917866 -0.12521352 -0.103902005 0.03560681 0.04312563 0.06028758
-0.1001525 -0.021540727 -0.04353465 0.052409075 0.11211285 -0.04516439 0.05734834 0.14386742
0.26472557 -0.07761705 0.076467305 0.022077717 -0.09115663 0.34035763 -0.0867009 -0.08455733
-0.10506966 0.021118652 0.3232839 0.058725312 -0.009573667 0.030092549 0.04105997 0.010765228
0.20982403 -0.06919617 -0.019186124 -0.047206514 0.10415142 0.13065079 0.15615554 -0.080235615
-0.057580747 -0.019203546 -0.082422264 0.0009735194 0.025434067 -0.018786298 -0.09166857 0.15761156
0.041410536 -0.09760175 -0.056141865 -0.046531957 0.041367736 0.05270796 0.14725648 -0.034867156
0.106932335 0.04048428 0.17175916 -0.0667542 -0.012897736 0.15687218 0.12934497 0.055621434
-0.027238 0.047122464 0.16656919 0.04023247 -0.031859558 -0.07778252 -0.087605834 0.08263455
-0.020372644 0.08364295 0.0678047 0.026108982 0.07961288 -0.09631334 0.19890621 -0.05811578
-0.0394509 -0.035353202 0.08239906 0.009546924 -0.07637104 0.009251038 0.010791139 -0.0028518292
-0.11491295 0.15363058 0.13988043 -0.047349192 0.052866977 0.07989128 0.09452455 0.12123379
0.035027236 0.16374758 0.10613397 0.05277951 -0.032821074 -0.0007694248 0.11364088 0.028354926
-0.00012152782 0.271439 0.09057254 0.045968287 0.1263882 0.21229033 0.11992743 0.10795461
-0.10800422 0.14780907 -0.07668882 0.10292041 0.0355207 -0.032861773 0.059976216 0.12256571
0.119447075 0.03371727 0.008581572 0.05424751 0.13562821 -0.08792055 -0.10123054 0.113974296
0.010484502 0.09722029 -0.025005577 0.14024729 0.08539503 0.09512975 -0.07072072 0.016683662
-0.04220978 0.09361912 -0.015190528 -0.08759754 0.023719989 0.032599196 -0.012141431 0.059563424
-0.014641741 0.029118532 0.006816859 -0.06367027 0.03372631 0.034113742 -0.06038162 -0.0846308
-0.083623014 0.026589304 0.20076317 0.010977922 0.02888785 0.0071998043 0.07037829 0.20614475
0.16464986 -0.088011354 0.2534886 -0.046504114 -0.08619492 -0.02752273 -0.007793146 -0.020970834
-0.05619994 -0.0068121585 -0.021556452 -0.063328914 0.020879503 -0.030267052 0.050026167 0.056597184
0.045206163 0.12025463 0.048153725 -0.09482835 0.0030160935 -0.059486907 0.057443675 -0.0063298703
0.15016782 0.015464683 0.04535097 -0.04217653 -0.03857878 0.11125275 0.24935822 -0.056671463
0.017091772 -0.016373117 -0.057914212 0.13496767 0.06364697 0.18980192 -0.111141674 -0.036583822
0.008477876 0.13898253 -0.07233289 -0.07008889 -0.0927459 0.15887414 0.040897585 0.0021156843
-0.007234966 0.0874605 -0.03724266 0.04457581 -0.035832733 -0.046864834 0.103309095 -0.019312682
-0.010833194 -0.11985899 0.026478866 -0.029788222 0.015666269 0.19176082 0.09862252 0.15654416
0.049767807 0.05388366 -0.027029611 0.054354545 0.1582522 -0.10016037 -0.032311752 -0.0066426094
00000000: 68bc 0c3e e8d4 623d 77bb e9bb b90e 6d3d
00000010: 93d4 ed3d 4575 19bb b191 a83e 6cff 133e
00000020: 3477 93bd b381 6b3c 1cf2 8dbd 553a 50bc
00000030: 732b a73c cb5b 773d 3166 e7bd 2adb 0c3d
00000040: dd5d 43bc d518 9cbb 8f33 bebd cec3 52bd
00000050: 7393 7c3d 5251 67bd 5def 393d 5df7 d33c
00000060: 0f19 e1bd c2a2 72bd 9670 c43d f937 00be
00000070: 93ca d4bd 72d8 113d 80a4 303d 1cf0 763d
00000080: c11c cdbd 2e76 b0bc 6451 32bd e6aa 563d
00000090: 6c9b e53d 4cfe 38bd 18e6 6a3d fb51 133e
000000a0: 1c8a 873e b0f5 9ebd e49a 9c3d 54dc b43c
000000b0: 54b0 babd 5b43 ae3e 3e90 b1bd 652c adbd
000000c0: c32e d7bd 0601 ad3c 7885 a53e f489 703d
000000d0: dfda 1cbc a684 f63c 802e 283d a460 303c
000000e0: 1cdc 563e b9b6 8dbd 382c 9dbc 9e5b 41bd
000000f0: 574d d53d 52c9 053e 3de7 1f3e 9252 a4bd
00000100: cad9 6bbd c150 9dbc 01cd a8bd c833 7f3a
00000110: 1b5b d03c b9e5 99bc bbbc bbbd ed64 213e
00000120: 189e 293d 6de3 c7bd 03f5 65bd 4b98 3ebd
00000130: 3771 293d 4de4 573d 67ca 163e ddd0 0ebd
00000140: 57ff da3d d8d2 253d a2e1 2f3e 6db6 88bd
00000150: 0751 53bc 1aa3 203e 0273 043e 4dd3 633d
00000160: 3a22 dfbc 7c03 413d 1d91 2a3e cdca 243d
00000170: 2b7f 02bd 714c 9fbd b06a b3bd 4e3c a93d
00000180: 88e4 a6bc ff4c ab3d 31dd 8a3d 81e2 d53c
00000190: 140c a33d ee3f c5bd 12ae 4b3e d00a 6ebd
000001a0: 4497 21bd 85ce 10bd d7c0 a83d b46a 1c3c
000001b0: 6b68 9cbd aa91 173c 51cd 303c c1e5 3abb
000001c0: 7b57 ebbd 5651 1d3e d13c 0f3e 3af1 41bd
000001d0: 0b8b 583d 0a9e a33d 1696 c13d 6c49 f83d
000001e0: b878 0f3d 72ad 273e c45c d93d 542f 583d
000001f0: 646f 06bd 39b3 49ba 8dbc e83d 9748 e83c
00000200: c0dc feb8 0dfa 8a3e 197e b93d 3e49 3c3d
00000210: e96b 013e a362 593e 839c f53d 4e17 dd3d
00000220: 5131 ddbd 435b 173e 070f 9dbd f0c7 d23d
00000230: 277e 113d 119a 06bd 9fa9 753d bb03 fb3d
00000240: aba0 f43d 1f1b 0a3d b999 0c3c a332 5e3d
00000250: 1fe2 0a3e b00f b4bd f551 cfbd 5b6b e93d
00000260: 30c7 2b3c 6e1b c73d 7fd8 ccbc fc9c 0f3e
00000270: 97e3 ae3d 63d3 c23d 06d6 90bd 2dac 883c
00000280: 2ae4 2cbd 62bb bf3d b1e1 78bc 5766 b3bd
00000290: 6c50 c23c bc86 053d daec 46bc c7f8 733d
000002a0: eae3 6fbc fd89 ee3c f55f df3b 8f65 82bd
000002b0: 9924 0a3d daba 0b3d b852 77bd ea52 adbd
000002c0: 8b42 abbd d0d1 d93c dc94 4d3e bedc 333c
000002d0: 36a6 ec3c 56ec eb3b 7e22 903d 9c17 533e
000002e0: f999 283e 4c3f b4bd 42c9 813e 197b 3ebd
000002f0: f686 b0bd 5977 e1bc a65d ffbb 07cb abbc
00000300: e931 66bd 8738 dfbb 2897 b0bc 97b2 81bd
00000310: 7e0b ab3c 9cf2 f7bc 3de8 4c3d 73d2 673d
00000320: 192a 393d 0f48 f63d d73c 453d 5e35 c2bd
00000330: a7a9 453b 8ba8 73bd 0f4a 6b3d cd6a cfbb
00000340: 98c5 193e 955f 7d3c f0c1 393d 4cc1 2cbd
00000350: c804 1ebd 7bd8 e33d c357 7f3e 5620 68bd
00000360: 0b04 8c3c ea20 86bc 7437 6dbd f734 0a3e
00000370: 5859 823d 6f5b 423e 3f9e e3bd ebd8 15bd
00000380: cae6 0a3c 7051 0e3e 4423 94bd c48a 8fbd
00000390: 90f1 bdbd e7af 223e 3a84 273d 4ba7 0a3b
000003a0: 4b13 edbb 7e1e b33d c28b 18bd 2095 363d
000003b0: 58c5 12bd 57f5 3fbd b893 d33d a135 9ebc
000003c0: b57d 31bc a178 f5bd 35ea d83c 6e06 f4bc
000003d0: 8c56 803c f35c 443e 9bfa c93d 1d4d 203e
000003e0: 54d9 4b3d 1db5 5c3d 346d ddbc dfa2 5e3d
000003f0: dd0c 223e e120 cdbd 5459 04bd 3faa d9bb

advantages.weight f4 [2, 256]
-0.21488234 0.018101702 -0.01832433 0.05867054 0.14560409 -0.00061764836 0.7687635 -0.1893199
0.0070266784 -0.019441295 0.025080584 -0.020073848 0.011493296 -0.18190673 -0.010255236 -0.17895351
0.020042008 0.03998221 0.0231761 0.05309187 -0.24667384 0.061527126 0.57550585 0.038513992
-0.0507071 0.025236325 -0.5515679 0.07797122 -0.05591321 0.042361856 -0.038428 0.0015921746
-0.020062065 0.01182648 0.0006622833 0.037245955 -0.19755493 0.02163204 -0.14343046 -0.2389128
0.41992548 -0.024694147 -0.4109372 -0.2166976 -0.015276642 0.4226707 -0.021282827 0.032771185
0.0024813705 -0.04871218 0.38389763 -0.25342396 0.009352358 -0.18101095 -0.012142243 -0.048060752
-0.30364177 0.06715279 0.02024212 0.044839147 -0.104886346 -0.16504131 -0.19401172 0.04076919
0.02018091 0.029321272 -0.018512342 -0.024214964 -0.060215652 0.009265193 0.06942983 -0.23045829
0.034472313 -0.023817452 -0.02459775 -0.04315178 0.03258116 -0.21026069 -0.12768258 -0.0018081308
-0.2306353 -0.22872508 -0.18175872 0.03225083 0.03234229 -0.20431335 -0.17308258 -0.0015652411
-0.034166988 -0.21156192 -0.19281301 0.00014296795 -0.0008367149 -0.01945178 -0.0040288465 -0.094567105
0.011268299 -0.29089198 0.081784084 -0.47057125 -0.20911317 0.57579094 -0.23492484 0.007716759
-0.0052191755 -0.010334133 -0.19738962 -0.0064733424 -0.004231247 -0.03832465 0.025796166 0.025055282
0.03688347 -0.21003118 -0.19385199 0.025118168 0.026667371 -0.21992964 -0.21242556 -0.19840595
0.008833504 -0.18789975 -0.2280226 -0.25151077 -0.053753216 0.062282875 -0.22561175 0.02935182
0.05478748 0.34181365 -0.14543626 0.003565861 -0.20315142 -0.2537996 0.3429859 -0.15147194
-0.0006594994 -0.2233363 0.07108683 -0.1337155 0.034862224 0.6261662 -0.2071699 -0.1966072
-0.20373343 0.023442974 -0.16356039 0.11558127 -0.16120073 0.04601898 -0.017405786 -0.20601268
0.046257727 -0.5276467 -0.016940475 -0.20133974 -0.21981297 -0.23369804 -0.030020747 0.601346
0.057329718 -0.10752788 -0.012310636 0.53361475 0.04726778 0.013344857 0.058633275 0.060728602
-0.013169676 -0.105679505 -0.037120387 -0.031754494 0.018321872 0.023841493 -0.0061690146 -0.019745674
0.0015389433 0.01477828 -0.19531585 -0.027341608 0.04086434 0.043694347 -0.13370979 -0.30331916
-0.22529908 0.03200753 0.26237094 0.011640168 0.013534039 0.07651699 -0.033817027 0.018511048
0.6723622 -0.049511656 -0.030687956 -0.0060837865 -0.016362673 0.00068973005 -0.020297466 0.027509863
0.014713287 -0.18849793 0.04092316 0.06236404 0.01412185 0.014617259 -0.012896045 0.0001190757
-0.19936185 0.021681821 -0.043613523 0.015818635 -0.021174043 -0.31386986 0.3422273 -0.016981555
-0.033727393 0.06255389 -0.04190312 -0.23517725 -0.20957951 -0.19123615 -0.039875932 0.040171467
-0.015775062 0.123182766 0.02731738 -0.04459744 -0.035907704 -0.20589435 0.070349075 0.012299861
0.008243938 -0.21259667 0.020636857 0.034781672 0.045703355 0.0569743 -0.19619933 0.004749032
0.041427467 0.024505906 0.0709329 0.054090515 -0.032116234 -0.22222468 -0.14910577 -0.18973362
0.5397792 -0.251382 0.032961898 -0.20741484 -0.16818078 0.0018451435 -0.07790592 -0.1707182
00000000: 1e0a 5cbe 054a 943c e81c 96bc 8550 703d
00000010: 3d19 153e aee9 21ba afcd 443f 13dd 41be
00000020: 0d40 e63b 5a43 9fbc cc75 cd3c e971 a4bc
00000030: 614e 3c3c c245 3abe 9405 28bc 973f 37be
00000040: 232f a43c 63c4 233d cedb bd3c dc76 593d
00000050: 1198 7cbe de03 7c3d 5a54 133f d9c0 1d3d
00000060: 40b2 4fbd 69bc ce3c 8e33 0dbf 60af 9f3d
00000070: 4005 65bd a083 2d3d ae66 1dbd 84b0 d03a
00000080: 3359 a4bc dac3 413c 149d 2d3a 378f 183d
00000090: d74b 4abe ad35 b13c 6fdf 12be 8fa5 74be
000000a0: 7900 d73e 614b cabc 5c66 d2be fae5 5dbe
000000b0: e14a 7abc 4b68 d83e 5359 aebc 143b 063d
000000c0: 7d9e 223b 6c86 47bd 3b8e c43e c9c0 81be
000000d0: a23a 193c ef5a 39be 42f0 46bc 5adb 44bd
000000e0: ef76 9bbe 6787 893d cdd2 a53c 41a9 373d
000000f0: a7ce d6bd 9700 29be 02ab 46be 98fd 263d
00000100: 7052 a53c 2a33 f03c 32a7 97bc 765e c6bc
00000110: b0a4 76bd 09cd 173c 3a31 8e3d 42fd 6bbe
00000120: d732 0d3d d11c c3bc 3881 c9bc ecbf 30bd
00000130: d373 053d 944e 57be 39bf 02be cdfe ecba
00000140: a92b 6cbe e836 6abe f51e 3abe 7219 043d
00000150: 5979 043d 8537 51be 8f3c 31be c728 cdba
00000160: aff2 0bbd b0a3 58be c670 45be abe9 1539
00000170: fd56 5bba 5759 9fbc 6a04 84bb 66ac c1bd
00000180: ac9e 383c cbef 94be 6a7e a73d b7ee f0be
00000190: c321 56be 0967 133f 2390 70be dedc fc3b
000001a0: 9e05 abbb 7f50 29bc 8120 4abe 551e d4bb
000001b0: 46a6 8abb 4ffa 1cbd 7b52 d33c bc40 cd3c
000001c0: 1f13 173d 6a12 57be 2381 46be 9ec4 cd3c
000001d0: 8875 da3c 3c35 61be 1686 59be ee2a 4bbe
000001e0: 67ba 103c cb68 40be c27e 69be 05c6 80be
000001f0: 552c 5cbd 541c 7f3d c406 67be 3a73 f03c
00000200: d668 603d 3302 af3e 3eed 14be 38b1 693b
00000210: ed06 50be 05f2 81be d99b af3e 761b 1bbe
00000220: 41e2 2cba 45b2 64be f995 913d b7ec 08be
00000230: b1cb 0e3d 6e4c 203f 5924 54be 6653 49be
00000240: 7f9f 50be 7b0b c03c 607c 27be dfb5 ec3d
00000250: ce11 25be 667e 3c3d 9496 8ebc fdf4 52be
00000260: be78 3d3d db13 07bf c0c6 8abc 012c 4ebe
00000270: a716 61be 8a4e 6fbe 12ee f5bc d0f1 193f
00000280: 91d2 6a3d 9437 dcbd 8db2 49bc fa9a 083f
00000290: dc9b 413d 63a4 5a3c 7229 703d 8ebe 783d
000002a0: a0c5 57bc 7f6e d8bd 8c0b 18bd 0011 02bd
000002b0: c017 963c 3c4f c33c 7225 cabb aec1 a1bc
000002c0: 5eb6 c93a 9920 723c e100 48be 82fb dfbc
000002d0: 5e61 273d d8f8 323d 38eb 08be a64c 9bbe
000002e0: cdb4 66be 541a 033d 7c55 863e 67b6 3e3c
000002f0: e0bd 5d3c f1b4 9c3d b983 0abd 7ba4 973c
00000300: ee1f 2c3f bccc 4abd 4f65 fbbc 805a c7bb
00000310: 030b 86bc 00cf 343a df46 a6bc 5d5c e13c
00000320: 0010 713c 9a05 41be 0b9f 273d 7071 7f3d
00000330: 555f 673c 3a7d 6f3c ef49 53bc 48b8 f938
00000340: 8325 4cbe 139e b13c 18a4 32bd 1596 813c
00000350: 3075 adbc 8db3 a0be 6b38 af3e e71c 8bbc
00000360: bc25 0abd 411c 803d 9ba2 2bbd 4ed2 70be
00000370: 039c 56be 69d3 43be f254 23bd d68a 243d
00000380: b43a 81bc 3f47 fc3d b3c8 df3c ceab 36bd
00000390: f513 13bd f8d5 52be 2d13 903d 5b85 493c
000003a0: 9511 073c f1b2 59be a00e a93c 3a77 0e3d
000003b0: 7133 3b3d e25d 693d 7ae8 48be c59d 9b3b
000003c0: d9af 293d 9cc0 c83c 4545 913d 048e 5d3d
000003d0: 508c 03bd de8e 63be 2faf 18be 8849 42be
000003e0: f82e 0a3f 24b5 80be 0e03 073d 8e64 54be
000003f0: 9537 2cbe bed8 f13a 248d 9fbd c0d0 2ebe

advantages.bias f4 [2]
0.2860961 -0.36310643
00000000: 307b 923e 16e9 b9be
